…
a naive prediction (all true) would result in:
without weights (even, odd): 0.947914 0.94881
with weights (even, odd): 0.4987796473901996 0.5001431248331325

making ratio plots
ratio plots made, time taken: 3.380169630050659

Classifier Summary
Model: "model"
_________________________________________________________________
 Layer (type)                Output Shape              Param #   
=================================================================
 input_1 (InputLayer)        [(None, 10)]              0         
                                                                 
 batch_normalization (BatchN  (None, 10)               40        
 ormalization)                                                   
                                                                 
 dense (Dense)               (None, 512)               5632      
                                                                 
 leaky_re_lu (LeakyReLU)     (None, 512)               0         
                                                                 
 dense_1 (Dense)             (None, 512)               262656    
                                                                 
 leaky_re_lu_1 (LeakyReLU)   (None, 512)               0         
                                                                 
 dense_2 (Dense)             (None, 512)               262656    
                                                                 
 dense_3 (Dense)             (None, 1)                 513       
                                                                 
=================================================================
Total params: 531,497
Trainable params: 531,477
Non-trainable params: 20
_________________________________________________________________
Epoch 1/200
   1/1954 [..............................] - ETA: 36:09 - loss: 1364.9840 - accuracy: 0.6289
…
