…
a naive prediction (all true) would result in:
without weights (even, odd): 0.85867 0.859628
with weights (even, odd): 0.5006332163777953 0.5013642220419925

making ratio plots
ratio plots made, time taken: 5.067816972732544

Classifier Summary
Model: "model"
_________________________________________________________________
 Layer (type)                Output Shape              Param #   
=================================================================
 input_1 (InputLayer)        [(None, 10)]              0         
                                                                 
 batch_normalization (BatchN  (None, 10)               40        
 ormalization)                                                   
                                                                 
 dense (Dense)               (None, 512)               5632      
                                                                 
 leaky_re_lu (LeakyReLU)     (None, 512)               0         
                                                                 
 dense_1 (Dense)             (None, 512)               262656    
                                                                 
 leaky_re_lu_1 (LeakyReLU)   (None, 512)               0         
                                                                 
 dense_2 (Dense)             (None, 512)               262656    
                                                                 
 dense_3 (Dense)             (None, 1)                 513       
                                                                 
=================================================================
Total params: 531,497
Trainable params: 531,477
Non-trainable params: 20
_________________________________________________________________
Epoch 1/200
   1/1954 [..............................] - ETA: 52:43 - loss: 4127.4019 - accuracy: 0.4922
…
